Found 242 files belonging to 2 classes.
Using 146 files for training.
Found 242 files belonging to 2 classes.
Using 96 files for validation.
Model: "sequential_2"
_________________________________________________________________
 Layer (type)                Output Shape              Param #   
=================================================================
 Normalising_layer (Rescalin  (None, 180, 180, 3)      0         
 g)                                                              
                                                                 
 Flattening_layer (Flatten)  (None, 97200)             0         
                                                                 
 Dense1_layer (Dense)        (None, 64)                6220864   
                                                                 
 Dense2_layer (Dense)        (None, 32)                2080      
                                                                 
 Softmax (Dense)             (None, 2)                 66        
                                                                 
=================================================================
Total params: 6,223,010
Trainable params: 6,223,010
Non-trainable params: 0
_________________________________________________________________
Found 242 files belonging to 2 classes.
Using 146 files for training.
Found 242 files belonging to 2 classes.
Using 96 files for validation.
Model: "sequential"
_________________________________________________________________
 Layer (type)                Output Shape              Param #   
=================================================================
 Normalising_layer (Rescalin  (None, 180, 180, 3)      0         
 g)                                                              
                                                                 
 Flattening_layer (Flatten)  (None, 97200)             0         
                                                                 
 Dense1_layer (Dense)        (None, 64)                6220864   
                                                                 
 Dense2_layer (Dense)        (None, 32)                2080      
                                                                 
 Softmax (Dense)             (None, 2)                 66        
                                                                 
=================================================================
Total params: 6,223,010
Trainable params: 6,223,010
Non-trainable params: 0
_________________________________________________________________
None
Epoch 1/30
 1/37 [..............................] - ETA: 34s - loss: 0.4321 - accuracy: 1.0000
…
