Found 22 files belonging to 2 classes.
Using 14 files for training.
Found 22 files belonging to 2 classes.
Using 8 files for validation.
Model: "sequential_1"
_________________________________________________________________
 Layer (type)                Output Shape              Param #   
=================================================================
 Normalising_layer (Rescalin  (None, 180, 180, 3)      0         
 g)                                                              
                                                                 
 Flattening_layer (Flatten)  (None, 97200)             0         
                                                                 
 Dense1_layer (Dense)        (None, 64)                6220864   
                                                                 
 Dense2_layer (Dense)        (None, 32)                2080      
                                                                 
 Softmax_layer (Dense)       (None, 2)                 66        
                                                                 
=================================================================
Total params: 6,223,010
Trainable params: 6,223,010
Non-trainable params: 0
_________________________________________________________________
None
Epoch 1/30
1/4 [======>.......................] - ETA: 0s - loss: 0.7539 - accuracy: 0.5000
…
